Num Zeros: 100
Num Ones: 100
Num Zeros: 16
Num Ones: 16
Num Train 0 (CN): 100
Num Train 1 (AD): 100
Normalize: True
FWHM: 0
Num Test 0 (CN): 16
Num Test 1 (AD): 16
Normalize: True
FWHM: 0
nn.Dropout(0.2)
Model Input Shape: (2, 140, 48, 64, 64)
==========================================================================================
Layer (type:depth-idx)                   Output Shape              Param #
==========================================================================================
ConvLSTM                                 [2, 2]                    --
├─Convolution: 1-1                       [2, 140, 192]             304
│    └─Flatten: 2-1                      [280, 48, 64, 64]         --
│    └─Conv3d: 2-2                       [280, 8, 46, 62, 62]      224
│    └─ReLU: 2-3                         [280, 8, 46, 62, 62]      --
│    └─MaxPool3d: 2-4                    [280, 8, 23, 31, 31]      --
│    └─Conv3d: 2-5                       [280, 16, 21, 29, 29]     3,472
│    └─ReLU: 2-6                         [280, 16, 21, 29, 29]     --
│    └─MaxPool3d: 2-7                    [280, 16, 10, 14, 14]     --
│    └─Conv3d: 2-8                       [280, 32, 8, 12, 12]      13,856
│    └─ReLU: 2-9                         [280, 32, 8, 12, 12]      --
│    └─Conv3d: 2-10                      [280, 32, 6, 10, 10]      27,680
│    └─ReLU: 2-11                        [280, 32, 6, 10, 10]      --
│    └─MaxPool3d: 2-12                   [280, 32, 3, 5, 5]        --
│    └─Conv3d: 2-13                      [280, 64, 1, 3, 3]        55,360
│    └─ReLU: 2-14                        [280, 64, 1, 3, 3]        --
│    └─Flatten: 2-15                     [280, 576]                --
│    └─Dropout: 2-16                     [280, 576]                --
│    └─Linear: 2-17                      [280, 192]                110,784
├─LSTM: 1-2                              [2, 2]                    --
│    └─LSTM: 2-18                        [2, 140, 192]             296,448
│    └─Linear: 2-19                      [2, 2]                    386
==========================================================================================
Total params: 508,514
Trainable params: 508,514
Non-trainable params: 0
Total mult-adds (G): 37.63
==========================================================================================
Input size (MB): 220.20
Forward/backward pass size (MB): 3929.39
Params size (MB): 2.03
Estimated Total Size (MB): 4151.62
…
