Num Train 0 (CN): 146
Num Train 1 (AD): 100
Normalize: True
FWHM: 6
Num Test 0 (CN): 40
Num Test 1 (AD): 16
Normalize: True
FWHM: 6
nn.Dropout(0.5)
Model Input Shape: (1, 140, 48, 64, 64)
==========================================================================================
Layer (type:depth-idx)                   Output Shape              Param #
==========================================================================================
ConvLSTM                                 [1, 2]                    --
├─Convolution: 1-1                       [1, 140, 192]             304
│    └─Flatten: 2-1                      [140, 48, 64, 64]         --
│    └─Conv3d: 2-2                       [140, 8, 46, 62, 62]      224
│    └─ReLU: 2-3                         [140, 8, 46, 62, 62]      --
│    └─MaxPool3d: 2-4                    [140, 8, 23, 31, 31]      --
│    └─Conv3d: 2-5                       [140, 16, 21, 29, 29]     3,472
│    └─ReLU: 2-6                         [140, 16, 21, 29, 29]     --
│    └─MaxPool3d: 2-7                    [140, 16, 10, 14, 14]     --
│    └─Conv3d: 2-8                       [140, 32, 8, 12, 12]      13,856
│    └─ReLU: 2-9                         [140, 32, 8, 12, 12]      --
│    └─Conv3d: 2-10                      [140, 32, 6, 10, 10]      27,680
│    └─ReLU: 2-11                        [140, 32, 6, 10, 10]      --
│    └─MaxPool3d: 2-12                   [140, 32, 3, 5, 5]        --
│    └─Conv3d: 2-13                      [140, 64, 1, 3, 3]        55,360
│    └─ReLU: 2-14                        [140, 64, 1, 3, 3]        --
│    └─Flatten: 2-15                     [140, 576]                --
│    └─Dropout: 2-16                     [140, 576]                --
│    └─Linear: 2-17                      [140, 192]                110,784
├─LSTM: 1-2                              [1, 2]                    --
│    └─LSTM: 2-18                        [1, 140, 192]             296,448
│    └─Linear: 2-19                      [1, 2]                    386
==========================================================================================
Total params: 508,514
Trainable params: 508,514
Non-trainable params: 0
Total mult-adds (G): 18.82
==========================================================================================
Input size (MB): 110.10
Forward/backward pass size (MB): 1964.70
Params size (MB): 2.03
Estimated Total Size (MB): 2076.83
…
